Layer (type)                 Output Shape              Param #   
=================================================================
conv2d_1 (Conv2D)            (None, 73, 73, 64)        1792      
_________________________________________________________________
max_pooling2d_1 (MaxPooling2 (None, 36, 36, 64)        0         
_________________________________________________________________
dropout_1 (Dropout)          (None, 36, 36, 64)        0         
_________________________________________________________________
conv2d_2 (Conv2D)            (None, 34, 34, 128)       73856     
_________________________________________________________________
max_pooling2d_2 (MaxPooling2 (None, 17, 17, 128)       0         
_________________________________________________________________
dropout_2 (Dropout)          (None, 17, 17, 128)       0         
_________________________________________________________________
conv2d_3 (Conv2D)            (None, 15, 15, 128)       147584    
_________________________________________________________________
max_pooling2d_3 (MaxPooling2 (None, 7, 7, 128)         0         
_________________________________________________________________
dropout_3 (Dropout)          (None, 7, 7, 128)         0         
_________________________________________________________________
conv2d_4 (Conv2D)            (None, 5, 5, 64)          73792     
_________________________________________________________________
max_pooling2d_4 (MaxPooling2 (None, 2, 2, 64)          0         
_________________________________________________________________
dropout_4 (Dropout)          (None, 2, 2, 64)          0         
_________________________________________________________________
flatten_1 (Flatten)          (None, 256)               0         
_________________________________________________________________
dense_1 (Dense)              (None, 512)               131584    
_________________________________________________________________
activation_1 (Activation)    (None, 512)               0         
_________________________________________________________________
dropout_5 (Dropout)          (None, 512)               0         
_________________________________________________________________
dense_2 (Dense)              (None, 256)               131328    
_________________________________________________________________
activation_2 (Activation)    (None, 256)               0         
_________________________________________________________________
dropout_6 (Dropout)          (None, 256)               0         
_________________________________________________________________
dense_3 (Dense)              (None, 1)                 257       
_________________________________________________________________
activation_3 (Activation)    (None, 1)                 0         
=================================================================
Total params: 560,193
Trainable params: 560,193
Non-trainable params: 0
_________________________________________________________________
Epoch 1/10
1442/1442 [==============================] - 31s - loss: 0.7721 - acc: 0.6172    - ETA: 
Epoch 2/10
1442/1442 [==============================] - 32s - loss: 0.5284 - acc: 0.7330    
…
